…
        "model.add(Activation('relu'))\n",
        "model.add(Dense(nb_actions))\n",
        "model.add(Activation('linear'))\n",
        "\n",
        "model.summary()"
      ],
      "execution_count": 0,
      "outputs": [
        {
          "output_type": "stream",
          "text": [
            "Model: \"sequential_2\"\n",
            "_________________________________________________________________\n",
            "Layer (type)                 Output Shape              Param #   \n",
            "=================================================================\n",
            "flatten_2 (Flatten)          (None, 2)                 0         \n",
            "_________________________________________________________________\n",
            "dense_5 (Dense)              (None, 16)                48        \n",
            "_________________________________________________________________\n",
            "activation_5 (Activation)    (None, 16)                0         \n",
            "_________________________________________________________________\n",
            "dense_6 (Dense)              (None, 16)                272       \n",
            "_________________________________________________________________\n",
            "activation_6 (Activation)    (None, 16)                0         \n",
            "_________________________________________________________________\n",
            "dense_7 (Dense)              (None, 16)                272       \n",
            "_________________________________________________________________\n",
            "activation_7 (Activation)    (None, 16)                0         \n",
            "_________________________________________________________________\n",
            "dense_8 (Dense)              (None, 495)               8415      \n",
            "_________________________________________________________________\n",
            "activation_8 (Activation)    (None, 495)               0         \n",
            "=================================================================\n",
            "Total params: 9,007\n",
            "Trainable params: 9,007\n",
            "Non-trainable params: 0\n",
            "_________________________________________________________________\n"
          ],
          "name": "stdout"
        }
      ]
    },
    {
      "cell_type": "code",
      "metadata": {
…
