…
        "model.add(Activation('relu'))\n",
        "model.add(Dense(nb_actions))\n",
        "model.add(Activation('linear'))\n",
        "\n",
        "model.summary()"
      ],
      "execution_count": 42,
      "outputs": [
        {
          "output_type": "stream",
          "text": [
            "Model: \"sequential_6\"\n",
            "_________________________________________________________________\n",
            "Layer (type)                 Output Shape              Param #   \n",
            "=================================================================\n",
            "flatten_6 (Flatten)          (None, 5)                 0         \n",
            "_________________________________________________________________\n",
            "dense_21 (Dense)             (None, 16)                96        \n",
            "_________________________________________________________________\n",
            "activation_21 (Activation)   (None, 16)                0         \n",
            "_________________________________________________________________\n",
            "dense_22 (Dense)             (None, 16)                272       \n",
            "_________________________________________________________________\n",
            "activation_22 (Activation)   (None, 16)                0         \n",
            "_________________________________________________________________\n",
            "dense_23 (Dense)             (None, 16)                272       \n",
            "_________________________________________________________________\n",
            "activation_23 (Activation)   (None, 16)                0         \n",
            "_________________________________________________________________\n",
            "dense_24 (Dense)             (None, 2)                 34        \n",
            "_________________________________________________________________\n",
            "activation_24 (Activation)   (None, 2)                 0         \n",
            "=================================================================\n",
            "Total params: 674\n",
            "Trainable params: 674\n",
            "Non-trainable params: 0\n",
            "_________________________________________________________________\n"
          ],
          "name": "stdout"
        }
      ]
    },
    {
      "cell_type": "code",
      "metadata": {
…
